data.pth (torch, 10730 bytes, 6 tensors)

l1.weight f4 [8, 163]
0.40083432 -0.33727753 0.3175275 -0.37846947 0.8416985 0.43455026 0.3309459 0.9333504
-0.25178814 -0.3102184 -0.22384661 -0.29506186 0.17068234 0.45688242 0.050338298 -0.44379413
-0.2564489 0.009017336 -0.065661974 0.2353075 0.76889086 -0.019069843 0.1275928 0.53585386
0.08172034 0.031328816 0.2341151 -0.24045195 0.20404702 0.058809206 0.4444982 0.23417489
0.29771093 -0.1842652 0.12417805 0.20587333 -0.26638734 0.27983552 0.04516333 -0.10657469
-0.16206382 0.07399881 0.292089 0.4259837 -0.09295011 -0.44861674 0.60979563 0.2465958
0.11159555 0.5483678 -0.094225794 -0.40929124 0.40164644 -0.08150979 0.17829594 -0.5796075
-0.2697705 -0.31891897 0.39177296 0.28951514 0.6879414 0.26393297 0.5176224 -0.5380488
-0.16936474 -0.53614837 -0.52238154 -0.14664564 0.06700746 -0.41442388 0.41256338 0.22621699
0.8545347 0.8382863 -0.04879262 0.07130397 -0.22241442 0.03791514 -0.39022171 0.046401065
0.3992872 0.048619285 0.38805342 0.21875934 0.10914914 0.092965424 -0.20870398 -0.26537412
-0.07202986 0.03106268 -0.31580758 0.42763177 0.392096 -0.3156985 0.54420537 -0.11879343
-0.12871328 -0.07818787 0.49837 0.48881897 -0.11692443 -0.12738517 0.17145637 0.4674782
-0.02880945 0.08568864 0.23511958 0.1110472 0.08860789 -1.1235216 0.2863506 0.248665
0.12161485 0.19918661 0.18006985 0.26009223 -0.4569057 0.09092877 -0.029060978 0.54944015
0.77055764 0.40162456 -0.12930547 -0.15244406 0.26497078 0.46135095 -0.32097873 0.0640236
0.058106963 0.081810996 0.19557421 0.27626726 0.84856313 0.3173089 0.29996178 -0.3115858
-0.11025111 0.5640607 0.6071103 0.40698093 0.08216313 -0.03869511 -0.096138574 -0.0859496
-0.057279352 0.06715966 0.78252447 0.117181376 0.20375411 -0.28230318 0.043275546 0.24171318
0.022026494 -0.6893721 -1.3700467 -0.30412796 0.110226505 -0.21955605 -0.14447024 -0.2134856
0.38996503 0.77773947 -0.14129537 -0.21848188 0.51451284 0.20872426 -0.5413946 -0.009305146
0.42889544 0.551616 0.82065445 0.37473616 0.2473524 0.5902234 0.36955163 -0.32187092
-0.64938146 0.47764158 0.46449146 0.49453878 -0.23192985 0.21468446 -0.034507286 0.56976926
0.3492117 -0.27450943 -0.24732322 -0.28964767 -0.08415555 -0.47085655 0.30878448 -0.19242929
-0.41030687 -0.5895034 -0.21118705 0.55382127 0.23502104 -0.19932567 -0.2802974 0.13713494
-0.41310877 -0.047322515 0.26500416 0.8074731 -0.28008628 -0.22227365 -0.24554484 0.18108447
-0.066154145 0.16777948 -0.28128862 -0.08051736 -0.50115424 0.066480964 0.5794238 0.5835563
0.17545216 -0.32226282 0.46866262 0.9765641 0.49762616 -0.5533751 -0.4391028 0.043056853
0.21742393 -0.2789627 0.7133537 0.071987316 0.81975794 0.78253365 0.21182182 0.4183079
0.38435602 -0.25381282 -0.18369198 0.48283806 0.4445434 0.24883282 0.06701903 0.3650277
-0.01346153 0.8203929 -0.15217425 0.0014997586 0.48268908 -0.26418576 0.51376617 -0.19635533
-0.17680474 0.2750074 0.3083994 -0.07042248 0.62664074 0.67042565 -0.36673167 0.6223155
00000000: 283a cd3e a4af acbe f792 a23e c0c6 c1be
00000010: 8e79 573f 5f7d de3e be71 a93e 0df0 6e3f
00000020: 60ea 80be f2d4 9ebe 0c38 65be 5912 97be
00000030: 5ac7 2e3e 7eec e93e 882f 4e3d fc38 e3be
00000040: 454d 83be 73bd 133c c979 86bd 73f4 703e
00000050: 08d6 443f 5c38 9cbc b0a7 023e b82d 093f
00000060: fe5c a73d a552 003d debb 6f3e 0939 76be
00000070: b4f1 503e ece1 703d 4595 e33e 8bcb 6f3e
00000080: 916d 983e 04b0 3cbe 1051 fe3d 75d0 523e
00000090: ec63 88be 9a46 8f3e 2ffd 383d d543 dabd
000000a0: 0ff4 25be b08c 973d b08c 953e 891a da3e
000000b0: a15c bebd 18b1 e5be 911b 1c3f 9c83 7c3e
000000c0: 358c e43d d561 0c3f 74f9 c0bd 9f8e d1be
000000d0: 9aa4 cd3e 9bee a6bd 3693 363e 2861 14bf
000000e0: 5c1f 8abe 5949 a3be 7796 c83e 543b 943e
000000f0: ed1c 303f 3922 873e e782 043f 91bd 09bf
00000100: f36d 2dbe 0541 09bf ccba 05bf 462a 16be
00000110: 353b 893d 5e2f d4be 823b d33e 6da5 673e
00000120: c9c2 5a3f ee99 563f c5da 47bd d107 923d
00000130: 9bc0 63be e84c 1b3d 24cb c7be 0b0f 3e3d
00000140: 5f6f cc3e 0425 473d f0ae c63e 7302 603e
00000150: 9689 df3d a864 be3d 7fb6 55be 1edf 87be
00000160: 6484 93bd 2977 fe3c 88b1 a1be 8df2 da3e
00000170: cfc0 c83e 3ca3 a1be 0b51 0b3f f849 f3bd
00000180: 6acd 03be f620 a0bd 5a2a ff3e 7b46 fa3e
00000190: 1376 efbd 4271 02be 4292 2f3e 4d59 ef3e
000001a0: cc01 ecbc 877d af3d 30c3 703e b76c e33d
000001b0: 0e78 b53d 8ecf 8fbf 8c9c 923e 0aa2 7e3e
000001c0: 3511 f93d 93f7 4b3e 3b64 383e cf2a 853e
000001d0: 8bef e9be dd38 ba3d 4a11 eebc 1ca8 0c3f
000001e0: 4443 453f bca1 cd3e a768 04be 4c1a 1cbe
000001f0: 40aa 873e 3136 ec3e 5357 a4be ce1e 833d
00000200: 9101 6e3d 868c a73d 9b44 483e e772 8d3e
00000210: 6f3b 593f 5076 a23e 9794 993e 2d88 9fbe
00000220: 55cb e1bd 4866 103f 956b 1b3f ce5f d03e
00000230: 2545 a83d c37e 1ebd 4de4 c4bd 5806 b0bd
00000240: c19d 6abd 018b 893d 8653 483f cafc ef3d
00000250: eba4 503e 0b8a 90be b341 313d a983 773e
00000260: e870 b43c b17a 30bf b15d afbf a9b6 9bbe
00000270: 6fbe e13d 4dd3 60be 02f0 13be f89b 5abe
00000280: 7fa9 c73e ef19 473f bcaf 10be b7b9 5fbe
00000290: 1db7 033f d0bb 553e d698 0abf 9c74 18bc
000002a0: 2f98 db3e b536 0d3f 6916 523f 6bdd bf3e
000002b0: f349 7d3e e118 173f df35 bd3e 44cc a4be
000002c0: dd3d 26bf 708d f43e d3d1 ed3e 3034 fd3e
000002d0: 057f 6dbe 3ed6 5b3e 8357 0dbd 66dc 113f
000002e0: e0cb b23e 808c 8cbe 4c42 7dbe b34c 94be
000002f0: bf59 acbd 1c14 f1be 0019 9e3e 2f0c 45be
00000300: be13 d2be b2e9 16bf 6b41 58be 3bc7 0d3f
00000310: 5ba9 703e 071c 4cbe 2483 8fbe 1a6d 0c3e
00000320: fe82 d3be 41d5 41bd a0ae 873e 8fb6 4e3f
00000330: 7867 8fbe b49b 63be 1b70 7bbe 356e 393e
00000340: d37b 87bd 62ce 2b3e 1005 90be 49e6 a4bd
00000350: a54b 00bf 2c27 883d 1e55 143f f263 153f
00000360: bba9 333e a2ff a4be 8cf4 ef3e 1b00 7a3f
00000370: dbc8 fe3e fea9 0dbf 15d2 e0be 625c 303d
00000380: 61a4 5e3e 33d4 8ebe 599e 363f 166e 933d
00000390: a8db 513f 2054 483f d2e7 583e 742c d63e
000003a0: 50ca c43e c1f3 81be c019 3cbe 8d36 f73e
000003b0: 319b e33e 08ce 7e3e 4641 893d e9e4 ba3e
000003c0: c08d 5cbc 4505 523f 91d3 1bbe 8c93 c43a
000003d0: 0623 f73e 5b43 87be 2e86 033f 5f11 49be
000003e0: 4d0c 35be c5cd 8c3e 87e6 9d3e a939 90bd
000003f0: 876b 203f 04a1 2b3f 41c4 bbbe 1250 1f3f

l1.bias f4 [8]
0.5394664 0.998507 0.9419471 0.52173245 0.63807225 0.8740637 0.96714115 0.6242657
00000000: 781a 0a3f 289e 7f3f 7223 713f 4290 053f
00000010: b458 233f a3c2 5f3f 9096 773f e0cf 1f3f

l2.weight f4 [8, 8]
-1.526066 1.7987415 0.15154667 -0.6500679 1.154085 -0.8014061 0.7160516 1.6286362
0.6206547 0.43452454 1.1513009 0.56018084 0.2141246 1.3239439 -1.0194682 -0.9592412
-0.7781059 1.5789311 -0.2926992 -1.6985058 1.8873646 1.1786566 0.22931866 -0.3161294
-0.46373445 0.0033185612 1.8126656 -0.8223148 -0.9635997 -0.32752678 2.0154092 0.68676734
-0.27578837 -0.046268612 -0.26224548 -0.07857141 -0.2571542 0.06747547 0.057138026 -0.0840261
0.6693324 1.7826959 0.90972984 1.5996858 0.04970696 -0.33302984 -0.61582077 -0.43523115
0.51665556 -0.5708439 1.2529162 -0.8414602 1.1124048 1.8452519 0.842527 -1.0072178
2.1377914 -0.0133459065 -1.1153411 1.0897726 0.18922563 1.3112404 0.29664215 1.2788401
00000000: 2156 c3bf 293d e63f 0d2f 1b3e da6a 26bf
00000010: 0fb9 933f f328 4dbf 284f 373f 2777 d03f
00000020: 3ae3 1e3f 007a de3e d45d 933f 0368 0f3f
00000030: 7b43 5b3e fe76 a93f ef7d 82bf d590 75bf
00000040: f331 47bf 6a1a ca3f abdc 95be a368 d9bf
00000050: 2a95 f13f 38de 963f 83d2 6a3e b6db a1be
00000060: 9a6e edbe 387c 593b 6d05 e83f 3983 52bf
00000070: 78ae 76bf 97b1 a7be 77fc 0040 fccf 2f3f
00000080: 2234 8dbe 2884 3dbd 0a45 86be 0cea a0bd
00000090: b7a9 83be 9430 8a3d 9009 6a3d e015 acbd
000000a0: 5e59 2b3f 612f e43f 0ee4 683f 81c2 cc3f
000000b0: 8699 4b3d e382 aabe 6ea6 1dbf 9ed6 debe
000000c0: 8a43 043f d322 12bf 8f5f a03f f069 57bf
000000d0: 4863 8e3f 3731 ec3f d9af 573f 83ec 80bf
000000e0: 93d1 0840 caa8 5abc 7fc3 8ebf ab7d 8b3f
000000f0: 5dc4 413e bad6 a73f 7be1 973e 08b1 a33f

l2.bias f4 [8]
0.582816 -0.032817014 0.713252 0.8802859 -0.3215549 0.433448 0.55849755 0.43121076
00000000: 6e33 153f 226b 06bd af97 363f 6b5a 613f
00000010: d8a2 a4be e5ec dd3e b2f9 0e3f a8c7 dc3e

l3.weight f4 [15, 8]
-1.763731 -0.46164972 -0.37094325 0.61825037 0.107679635 -1.2715338 0.99999076 -0.97080326
0.36921135 -1.4220941 -1.280355 0.29919857 -0.1978019 -0.2856158 -1.3685982 -0.5522983
-1.4923595 -0.48389918 -1.3141476 0.44819474 0.18325946 0.76176924 -0.026130114 -0.6417525
0.5342964 -2.4650543 -0.9083874 -1.8456203 0.11627337 0.43515328 -1.5235448 0.117331766
-0.2937948 -2.2510319 0.85220826 -0.32417196 0.25524744 -2.9674263 0.4011611 0.5836622
-0.147383 -0.39656293 0.67835414 -0.49991092 -0.32987967 0.147436 0.30175945 -2.0581458
-0.92647505 0.2298099 -1.7274979 -1.3109282 0.12565383 0.48639005 -1.0382354 0.43734258
-1.4529455 0.2652078 0.5909461 -1.2509441 0.33301416 -2.0855367 0.48790205 0.116590366
0.22496381 -2.9146273 0.35040158 0.31973812 0.08266476 -0.85354125 -0.00954932 -1.187092
-2.0004525 0.8252878 -1.4605604 -0.7241271 0.2977818 -0.053253688 0.7080931 -0.54684424
-0.042385623 -1.6814275 -1.6498449 0.75869393 0.072904974 -2.1980665 0.55550843 -0.45587847
0.777525 -0.64171207 -0.764349 0.6458319 0.22867867 -2.8256469 -1.7857618 -0.24343666
-1.0372674 0.3793581 0.49326253 -1.9806197 0.26482478 0.3406989 0.26382482 -0.996511
1.1095219 -1.8833318 0.992462 -1.0080879 -0.33872065 -1.2849764 -1.638756 -0.38411853
0.16569594 -0.4416091 0.017431341 -0.32762444 0.21167186 -0.8479763 -0.8423407 0.5637253
00000000: f0c1 e1bf 5a5d ecbe 46ec bdbe a845 1e3f
00000010: 2487 dc3d 9fc1 a2bf 65ff 7f3f 9086 78bf
00000020: 4509 bd3e 2e07 b6bf ace2 a3bf 8e30 993e
00000030: 958c 4abe 3c3c 92be 3a2e afbf 6c63 0dbf
00000040: a305 bfbf a2c1 f7be fd35 a8bf c879 e53e
00000050: 5ea8 3b3e 4f03 433f d20e d6bc e449 24bf
00000060: a6c7 083f 73c3 1dc0 148c 68bf 493d ecbf
00000070: bc20 ee3d 69cc de3e 8403 c3bf a34b f03d
00000080: 466c 96be e810 10c0 522a 5a3f def9 a5be
00000090: cbaf 823e 50ea 3dc0 fd64 cd3e e36a 153f
000000a0: 92eb 16be 4c0a cbbe 9ea8 2d3f 53f4 ffbe
000000b0: fde5 a8be 76f9 163e 3780 9a3e a9b8 03c0
000000c0: 782d 6dbf 4953 6b3e a71e ddbf 7fcc a7bf
000000d0: 66ab 003e 1e08 f93e e6e4 84bf 5eeb df3e
000000e0: 1efa b9bf 51c9 873e 3e48 173f f01e a0bf
000000f0: d580 aa3e 6f79 05c0 4cce f93e eec6 ee3d
00000100: ea5c 663e 4189 3ac0 d667 b33e b7b4 a33e
00000110: 244c a93d ae81 5abf c074 1cbc a1f2 97bf
00000120: 6a07 00c0 1046 533f a5f3 babf 6560 39bf
00000130: db76 983e 8a20 5abd 9745 353f fcfd 0bbf
00000140: 8c9c 2dbd 0439 d7bf 1e2e d3bf c439 423f
00000150: 344f 953d 1fad 0cc0 cd35 0e3f e768 e9be
00000160: e10b 473f 3e47 24bf 60ac 43bf 3d55 253f
00000170: be2a 6a3e 66d7 34c0 d893 e4bf 7647 79be
00000180: 2ec5 84bf 3a3b c23e e88c fc3e f284 fdbf
00000190: 1d97 873e 1670 ae3e 0c14 873e 581b 7fbf
000001a0: d004 8e3f 0411 f1bf fd11 7e3f 0609 81bf
000001b0: cb6c adbe 1b7a a4bf c2c2 d1bf 2fab c4be
000001c0: 32ac 293e 971a e2be 2ccc 8e3c 64be a7be
000001d0: 82c0 583e fa14 59bf a4a3 57bf 4d50 103f

l3.bias f4 [15]
-0.28478047 0.11270838 -0.10883046 0.09401602 0.30529392 -0.04230284 0.32388926 0.17534323
0.013171071 -0.30717134 -0.23685221 -0.1340479 -0.27823147 0.19853628 0.07864783
00000000: bfce 91be a7d3 e63d 81e2 debd 798b c03d
00000010: 7c4f 9c3e be45 2dbd d0d4 a53e 2d8d 333e
00000020: 7acb 573c 9045 9dbe 6389 72be da43 09be
00000030: 5b74 8ebe 184d 4b3e 1d12 a13d
